data.pth (torch, 7722 bytes, 6 tensors)

l1.weight f4 [8, 85]
000000 cb b5 75 3e b9 53 47 be 34 4f 92 be 98 36 4c 3e
       0.2399513 -0.19465531 -0.28576052 0.19942701
000010 3e 13 88 3e d2 cd 12 3f bf 71 eb 3e f3 ea e4 3e
       0.2657718 0.57345307 0.4598522 0.44710502
000020 b7 67 c3 3e 55 87 38 3e 15 6d d9 3e 5d 2e e7 3e
       0.38165066 0.18020375 0.42466035 0.4515256
000030 8c f5 88 be 82 b2 bf 3e 01 3d 60 3d e6 fe f6 be
       -0.26749837 0.37440878 0.054745678 -0.48241347
000040 a0 a4 50 3f e0 77 4c 3d 21 c2 60 3e ab b5 56 3e
       0.815012 0.04991901 0.21949054 0.20967738
000050 dd a8 2a bf 23 26 b5 3f 9c 30 6f 3f 1b 24 f5 3e
       -0.66663915 1.4152263 0.9343355 0.4787911
000060 4b e4 82 3f 5a 13 c2 be 13 69 93 3e 6c 96 9b 3e
       1.022592 -0.3790539 0.28791103 0.303882
000070 e3 17 7a 3e 8b 25 93 3e b4 99 2f bd 2e 8b 2a 3e
       0.24423175 0.2873958 -0.042871192 0.16654655
000080 d5 8e f7 be f9 79 a6 3e 63 00 b2 3e b7 ab 2a bf
       -0.4835116 0.32514933 0.3476592 -0.66668266
000090 57 b5 2a bf 10 af 2a bf f5 52 8b 3e 75 a5 2a 3e
       -0.6668295 -0.66673374 0.2721173 0.1666468
0000a0 ad aa af 3e d4 dd 94 bf a8 a8 f3 bd 82 d0 23 3f
       0.34309903 -1.1630197 -0.11897403 0.6399003
0000b0 be 13 c3 be 1a 1c 1c bf 01 78 29 be b9 7b be 3e
       -0.38101 -0.6098038 -0.16549684 0.37203768
0000c0 39 82 7b be 6a c6 bc 3e c7 f3 71 3f 32 dc c3 3c
       -0.24561395 0.36870128 0.945126 0.023908708
0000d0 fb 61 ab 3e fb e2 df 3e f5 87 ae 3d 92 f9 72 bd
       0.3347319 0.4372786 0.085220255 -0.05932004
0000e0 12 aa 91 3e e9 c3 02 bf a9 ce 59 3e c1 9a f8 3e
       0.28450066 -0.51080185 0.21270241 0.48555568
0000f0 7c e3 b4 3e 13 2b 7f 3e ca 5f a8 be 97 4c 74 be
       0.35329807 0.24918775 -0.3288558 -0.23857342
000100 ed 82 f4 3e 93 a4 0c 3f 31 5e c3 3e c9 b1 0c bf
       0.47756138 0.5493862 0.381578 -0.5495878
000110 c4 63 0c bf 23 9e a6 3e d2 4a 9d 3e 21 ca a7 3e
       -0.5483973 0.32542524 0.30721146 0.327714
000120 3b a2 57 3e 1c 7e 17 3e 17 e6 14 3f 69 f6 8d be
       0.2105798 0.147942 0.5816359 -0.2772706
000130 c2 b8 40 3f fd 04 06 3f 1a 87 d8 3e f9 41 cc 3e
       0.7528192 0.5235136 0.42290574 0.39894083
000140 54 ba f3 3e fd f6 a8 3e 1c 22 86 bd 2f 46 8e 3e
       0.47603095 0.33000937 -0.065494746 0.2778792
000150 8f d5 99 3e 10 75 4b 3d 83 7e 35 3f 17 f0 8c be
       0.30045745 0.049672186 0.70896167 -0.27526924
000160 c5 fe 1a bd eb da 28 bd 49 9e ab be 10 fe d2 bc
       -0.037840623 -0.0412244 -0.335192 -0.025755912
000170 47 9d 1e be b8 54 f0 bd 07 ba 98 bd 17 92 89 be
       -0.15489684 -0.11734909 -0.07457357 -0.2686927
000180 9f 5c 3b bc 88 b5 9e be 41 28 67 be 13 86 40 bd
       -0.011435657 -0.30997872 -0.2257395 -0.047002863
000190 94 93 77 3e 2b 0b 51 be b5 4c c2 be f8 2e 36 be
       0.2417739 -0.20414416 -0.37949148 -0.17791355
0001a0 2e 2b 02 bc b0 10 95 3f 05 c0 59 3f d7 00 73 bd
       -0.007944865 1.1645718 0.85058624 -0.059326973
0001b0 83 66 1a 3e 2f dc c3 be 35 9b a1 be 54 54 e0 bd
       0.15078168 -0.38253924 -0.31563726 -0.10953584
0001c0 59 e5 1c be 63 73 2f be ca ee 03 bd 76 1b 97 3c
       -0.15321864 -0.1713386 -0.03221015 0.018445712
0001d0 71 ff 90 bd 07 4b a1 3d 9c 57 c6 be 8e 7b d1 3d
       -0.070799716 0.078756385 -0.38738716 0.10228644
0001e0 28 40 17 bf c4 30 17 bf 89 3c 17 bf cf eb 5f bc
       -0.5908227 -0.59058785 -0.59076744 -0.013667061
0001f0 4a a1 84 bc 1a e8 5d be 2e c6 7d 3f df 89 eb bb
       -0.01619019 -0.21670571 0.99130523 -0.0071880664
000200 69 0a e2 be d1 da 16 3d c6 89 ea be 8e ed db bd
       -0.44148567 0.036829773 -0.45808238 -0.10738669
000210 36 77 18 3d 35 6d c3 3e 22 a9 80 bd 0f af 1c bd
       0.037223063 0.38169256 -0.062822595 -0.038252886
000220 fe 68 c7 bd c8 d6 f9 bd 79 ec 77 3e e6 5d c0 bd
       -0.097368225 -0.121991694 0.24211301 -0.0939291
000230 ce 80 df bd 1b 3a c8 3e fa f1 06 bf d5 1f a6 bd
       -0.109132394 0.3910683 -0.52712977 -0.0811154
000240 8b 00 5f 3e f5 4e 5b bf 8c 5e 07 bd 05 42 17 bf
       0.21777551 -0.85667354 -0.03304915 -0.5908511
000250 25 47 44 bd e3 a6 05 3f fa 51 e6 be 7e b9 1d be
       -0.04791941 0.52207774 -0.44984418 -0.15402791
000260 9b a9 39 bd ec 88 77 3f da 20 19 be 25 24 b4 be
       -0.045327764 0.966933 -0.14953938 -0.35183826
000270 4b 52 9f bc 70 d6 6f 3d cc 17 40 be 4d 04 bd 3c
       -0.01944842 0.058554113 -0.18759078 0.02307334
000280 cf b1 8f be d4 d9 aa be 57 cc 84 bd a1 f7 68 be
       -0.28065345 -0.33369315 -0.06484287 -0.22750713
000290 49 c4 85 bd 8a 22 d3 3e 09 42 2c 3e 44 21 ed 3c
       -0.06531579 0.4123729 0.16822065 0.028946526
0002a0 fb 07 05 be 21 78 57 bc 88 d9 e1 3d 86 82 36 3f
       -0.12991326 -0.0131512 0.11027819 0.7129291
0002b0 39 ee e8 3e 2a 5b 83 be 3c d4 19 bd 5b 00 bd be
       0.4549425 -0.2565549 -0.037555918 -0.36914334
0002c0 7d 2f ea bd fc cc 20 3e a0 8e f8 bd 5f ad ca bd
       -0.11434839 0.15703195 -0.121365786 -0.09896349
0002d0 fc 02 68 be a6 dc 87 3e ec 9c aa be 08 a3 b8 be
       -0.22657388 0.2653553 -0.33322847 -0.36061883
0002e0 65 aa b8 bd ad 4c c3 3e 91 88 65 3d a4 f6 cd be
       -0.09016875 0.38144436 0.056038443 -0.40227234
0002f0 c2 f0 4d bd 90 b4 60 bd 92 40 83 3f e1 bd 2d 3f
       -0.050278433 -0.054859698 1.025408 0.6786786
000300 39 42 a0 bd d7 34 83 3a 67 a1 5a 3d ed 17 01 3f
       -0.07825131 0.0010010254 0.05337658 0.5042713
000310 3a 1a 98 bc 28 21 3d be 3b dc 6d be fc bf 08 be
       -0.018567193 -0.1846968 -0.23228543 -0.13354486
000320 7c 1f 11 3d 8f 2b 1b be 94 a4 db 3e 47 81 ba be
       0.035430416 -0.15153335 0.42899 -0.36426756
000330 53 3f c3 be b7 c1 20 bf 16 62 dc be 6a e0 0a bf
       -0.3813425 -0.62795585 -0.43043584 -0.5424868
000340 96 8e 1e be f7 0c ac bd ed 42 2e be c0 64 99 3f
       -0.1548408 -0.0840091 -0.17017718 1.1983871
000350 0e e8 9b 3e 8b d5 02 bf 8f 31 86 3e b4 e7 2e be
       0.3045048 -0.5110709 0.26209685 -0.17080575
000360 7f a7 b5 3e a6 6f 34 3e bd f9 2a 3f de e2 d5 bd
       0.35479352 0.17620715 0.6678732 -0.10443662
000370 c6 64 80 bd 87 8c 00 3e 1c 5e 46 3d 40 65 7d 3d
       -0.06269221 0.12553607 0.048429593 0.061864138
000380 e0 c2 74 3b 1a 74 3e 3c 07 a9 27 3f ea fc 11 bf
       0.00373476 0.01162436 0.6549229 -0.5702654
000390 68 3f f6 bd 66 c8 b4 3e 9d 82 6b bf 36 53 4a be
       -0.120238125 0.35309142 -0.91996175 -0.19758305
0003a0 a2 e1 3d bf 2e 4c ad 3e 55 42 03 3f 3c b4 a4 be
       -0.74172413 0.33847183 0.5127309 -0.32168758
0003b0 5d 79 29 be 0f c5 28 3f 45 ff 59 3f 1d 30 3b be
       -0.16550203 0.6592569 0.85155135 -0.18280073
0003c0 c3 a0 bd be 1f e1 04 be 9a 31 da 3d c1 b4 d8 bd
       -0.37036714 -0.12976502 0.10653992 -0.10581351
0003d0 d2 56 7c 3e 14 66 d0 be 31 b3 5a be 97 10 8d 3e
       0.24642494 -0.4070288 -0.21357419 0.2755172
0003e0 02 1d 8e be 3f f2 1b be 66 b2 36 bd 48 7e ef 3c
       -0.27756506 -0.15229128 -0.044603728 0.02923502
0003f0 a7 3c c8 bd b6 e0 c4 bd ae 86 5d 3e 7d db 04 3e
       -0.097771935 -0.09613173 0.21633407 0.12974353

l1.bias f4 [8]
000000 25 a1 2a 3f af 31 17 3f b7 c9 3d 3f 9d e7 6f 3f
       0.6665214 0.59060186 0.7413592 0.9371279
000010 5a 87 ae 3f 23 0f 07 3f c9 5c 26 3f 3b f9 91 3f
       1.3635056 0.5275747 0.6498533 1.1404184

l2.weight f4 [8, 8]
000000 ef 51 a6 3c ce aa 58 bf 15 b1 02 bf 0a 4f 6b 3f
       0.02030274 -0.8463563 -0.51051456 0.9191748
000010 a1 ee b8 3e 00 b2 99 3e 60 48 39 bf 9a d8 0c 3f
       0.3611956 0.30018616 -0.7237606 0.5501801
000020 31 5b af be 4f 84 68 bf 37 34 fb be 18 88 b9 3f
       -0.3424926 -0.90826887 -0.49063274 1.4494658
000030 32 bb 1a be 8b e0 42 3f 61 ba 89 3e 8f 90 e2 3f
       -0.15110472 0.76123875 0.26900008 1.7700366
000040 9f 1f 97 3e 69 23 f5 be 46 63 0b 3e b0 86 a1 bd
       0.29516312 -0.47878578 0.13612089 -0.07887018
000050 2c 6a c3 3f b9 70 a0 bf 10 8d 0c bf 9f b5 67 3f
       1.5266776 -1.25344 -0.54902744 0.90511507
000060 fa fe 6c 3e 6c 88 8e be f0 48 aa 3c 3a 93 38 be
       0.23144141 -0.27838457 0.020786732 -0.18024912
000070 f8 f0 32 bd c9 ae 9b be 40 08 60 3d 8e 37 8c be
       -0.043686837 -0.30406788 0.054695368 -0.27386135
000080 a4 0f ec 3e 6e 78 bd 3f bb 88 e9 3f 33 cf 45 3f
       0.46105683 1.4802377 1.8244852 0.77269286
000090 9b 21 85 3f cc a7 c3 3f 0b 0c e9 3f 4c 71 de bf
       1.040088 1.5285583 1.82068 -1.7378325
0000a0 cc 22 0d 40 7b c6 0d 3e 17 86 09 be c3 79 6b 3f
       2.2052488 0.13845246 -0.13430057 0.9198267
0000b0 04 44 56 be 8b 60 3e bf cb 83 0a 3f 40 21 53 be
       -0.20924383 -0.7436606 0.5410735 -0.20618153
0000c0 dd e6 b5 be 21 32 ac 3f 2b 47 dc 3f 6e 99 89 bf
       -0.35527697 1.3452798 1.7209219 -1.0749948
0000d0 4b a4 d3 3f d0 be a1 be b8 7c a9 3f 40 49 4a 3f
       1.6534513 -0.3159089 1.3241186 0.7901802
0000e0 a2 59 e0 ba 7a e3 58 bf 07 6f 3c 3e 93 e3 cc 3f
       -0.0017116556 -0.847221 0.18401729 1.600695
0000f0 d3 90 13 3f b8 eb c6 3f b8 20 b5 bf 0f 32 02 be
       0.5764286 1.5540686 -1.415061 -0.12714408

l2.bias f4 [8]
000000 8b dd 50 be 0d a1 8c 3f 05 b1 29 3f 38 25 89 be
       -0.20397012 1.0986649 0.66285735 -0.26786208
000010 cd 98 70 3e b3 57 63 3e 08 47 34 3f a6 c2 20 3f
       0.23495789 0.22201423 0.70420885 0.6279701

l3.weight f4 [22, 8]
000000 32 09 9e bd 7b 27 16 3d aa a2 d8 be 72 76 39 3e
       -0.077165976 0.036658745 -0.42311603 0.1811159
000010 e0 2f 1c 3d 75 2b 0c bc f6 c2 e8 bc f9 75 c7 bc
       0.038131595 -0.008555283 -0.028413277 -0.024348246
000020 a1 e5 9b 3e 00 0a 5b be b0 1d 9c be 88 be 1a be
       0.3044863 -0.21390533 -0.304914 -0.15111744
000030 21 58 35 3e bc 96 b1 be 32 a0 18 be 9f f8 1a be
       0.177094 -0.34685314 -0.1490486 -0.15133904
000040 1c 2a 98 3c aa 2e 66 3e 22 dd 0b be 42 6c 40 3e
       0.018574767 0.22478738 -0.13658574 0.18791297
000050 cc 9b 72 3d f2 8f 3e be e4 17 a2 bd 8d 38 a6 be
       0.05923061 -0.18609598 -0.07914713 -0.3246502
000060 81 ab a0 3e b0 d6 96 be 2d 84 f6 3e ad 16 38 be
       0.31380847 -0.2946067 0.48147717 -0.179774
000070 17 8c 21 3f af 74 db bf 85 f3 5b be ea 32 34 3f
       0.63104385 -1.7144984 -0.21479614 0.7039019
000080 72 8f 75 be 27 cc cf bf 57 f4 8c 3e be c1 09 3e
       -0.23980501 -1.6234177 0.27530167 0.13452813
000090 c2 49 14 3f 7d 88 42 3f e8 a8 8a 3e a7 94 80 bf
       0.57925045 0.75989515 0.2708199 -1.0045365
0000a0 57 18 69 be cc 7f 52 3d 09 35 44 be 4c 98 82 3d
       -0.22763191 0.051391408 -0.19160856 0.063767046
0000b0 f3 47 be bc 4b 04 71 bd a8 f7 2f 3d fb 5c bc 3c
       -0.023227667 -0.058841985 0.042960793 0.022993555
0000c0 6a 97 25 3c 62 ce ba 3d af 5a cf bf fa 6e 2e 3e
       0.010106901 0.09121396 -1.619955 0.17034522
0000d0 9d d5 0a 3f 11 cf b6 3e 0d b2 a9 bf 23 b3 11 3f
       0.542322 0.35704854 -1.3257462 0.56913966
0000e0 93 7c 83 be 9f 71 8e be 49 96 bc 3d be 3b 84 be
       -0.2568098 -0.2782106 0.09208352 -0.2582683
0000f0 4b 80 32 3e 6d 21 10 be 13 a2 68 be 2e 67 bd 3d
       0.17431752 -0.14075251 -0.22718076 0.092481956
000100 d4 56 9d 3f 06 35 a0 3f 41 60 2e bf bf 2a 29 3e
       1.2292123 1.2516181 -0.6811562 0.16520213
000110 f5 fa 36 bf 54 55 bb bf 43 08 9c bf 81 58 58 3f
       -0.7147668 -1.4635415 -1.2190021 0.84510046
000120 da e1 9b be bd a7 9c be 0f 29 61 be ca 25 34 3e
       -0.3044575 -0.30596724 -0.21988319 0.1759254
000130 6e 53 e0 bd b5 0d 9c 3e cc 42 a4 be f3 c9 b5 be
       -0.10953413 0.30479208 -0.32082212 -0.35505638
000140 45 08 15 c0 cb 0b 46 3f 82 55 45 3f e0 13 85 bc
       -2.3286297 0.77361745 0.770836 -0.016244829
000150 59 7c b1 bd 4a e8 90 bf e5 29 46 3f aa c3 db bf
       -0.086662956 -1.1320889 0.77407676 -1.7169087
000160 f5 03 60 be 65 0f 1b be dc 43 7f bd c9 31 5e be
       -0.2187651 -0.15142591 -0.062320575 -0.21698679
000170 4c 14 62 3d 96 72 51 3e 8a 78 4a be 46 77 97 be
       0.055195138 0.20453867 -0.19772545 -0.29583186
000180 c4 ad 96 3e 63 ce d2 3e 48 07 80 3f 05 51 9b 3e
       0.29429448 0.41173086 1.0002222 0.3033525
000190 84 e7 b0 bf 59 73 db bf fd f4 0d 3f 47 86 fa 3e
       -1.3820653 -1.7144576 0.5545195 0.4893057
0001a0 d9 2d 18 c0 fe 5a 45 3f 05 8a f7 bf b4 ef 9b 3e
       -2.3777983 0.7709197 -1.9338995 0.30456316
0001b0 9c 98 21 3f d7 d2 85 3e 30 2e b9 3d dc 14 c8 be
       0.6312349 0.2613742 0.09042013 -0.39078414
0001c0 a4 11 f7 bf 89 f4 30 bf 51 09 17 c0 04 4e 71 be
       -1.9302258 -0.6912313 -2.3599436 -0.23564917
0001d0 a5 5d 86 3f 12 56 cf bf bc 52 f2 3e 62 08 72 3e
       1.0497328 -1.6198142 0.47328746 0.2363601
0001e0 74 f2 f4 3d 6c 22 d7 bc e8 aa 37 be 1d 2a a2 3e
       0.11960307 -0.02626153 -0.1793629 0.31672755
0001f0 12 28 e7 bd 3e db cc 3d 42 62 96 be 26 a1 e5 3c
       -0.1128694 0.10002755 -0.2937184 0.028030943
000200 02 92 19 be 23 5f c3 bd 52 a1 0d be 30 28 53 bd
       -0.14997104 -0.0953963 -0.1383107 -0.051551998
000210 08 85 8c 3c cd f1 d6 3d 51 59 ab 3c b1 35 14 be
       0.017153278 0.104953386 0.020916613 -0.14473607
000220 f8 04 93 bd e1 17 13 be cd bc c1 be c7 be ad be
       -0.07178682 -0.14364578 -0.37839356 -0.33934614
000230 39 82 0a bd dc 6a b6 3d 3d a6 fa 3d 16 ef 14 be
       -0.033815596 0.089071006 0.12238739 -0.14544329
000240 79 05 b0 be 6b ce 80 be 92 d1 06 bd 0c b4 13 be
       -0.34379175 -0.25157484 -0.032914706 -0.14424151
000250 85 af 0b bd 99 94 81 3d a4 4b aa be 27 23 f3 3d
       -0.034102935 0.06327171 -0.33260834 0.11871939
000260 0e 32 a7 be 1d b1 f7 bf 4e fa ae be 76 e7 66 3c
       -0.32655376 -1.9350926 -0.34175342 0.0140932705
000270 30 dd 2b 3f 1d c5 e5 bf ab 83 93 3f 62 c2 f5 bf
       0.6713438 -1.7950779 1.1524557 -1.9199946
000280 e4 5a 2a bd af 0d b5 be 98 ba 47 bc 66 04 0f 3e
       -0.041590586 -0.35362002 -0.0121904835 0.13966522
000290 99 7b 9b bd 0d dc 8a 3e be ca a6 be d3 37 b8 3d
       -0.07591934 0.2712101 -0.32576555 0.089950226
0002a0 fa cc 81 be 95 0c ad be c5 53 f9 bd 45 8d ad be
       -0.25351697 -0.33798662 -0.12174181 -0.33896843
0002b0 e6 f9 05 3e 69 9e 80 3c fc d4 85 bd 5a 0c 8c be
       0.1308361 0.015700536 -0.06534764 -0.27353173

l3.bias f4 [22]
000000 99 59 b7 be 11 dd c9 be 37 c4 88 be 4b 4e e4 bd
       -0.35810545 -0.39426473 -0.267122 -0.11147746
000010 83 a2 28 3e 99 51 32 be b5 c3 ff 3b 76 6e 1b be
       0.16468243 -0.1741394 0.0078053125 -0.15178856
000020 5d 29 ed 3e 26 ca 63 bd ed 7e 4f 3e 26 6f a6 bd
       0.4632062 -0.055612706 0.20263262 -0.08126669
000030 be 25 5f 3e 40 78 2b 3f a2 ef af 3e 5a ff 57 be
       0.21791741 0.6698036 0.34362513 -0.21093503
000040 6a 1b b4 be cd 6b b3 be 00 af 00 be 1e 02 b7 3e
       -0.35177165 -0.35043183 -0.12566757 0.35743803
000050 d1 ef bd be d0 1c d9 be
       -0.37097028 -0.42404795
